DL_2.pth (torch, 52107 bytes, 14 tensors)

0.weight f4 [16, 3, 3, 3]
-0.06541757 -0.1122985 -0.20122352 -0.08362585 0.079646125 0.105989866 -0.07423397 -0.15593685
-0.060553897 0.19508749 -0.08949355 -0.056677908 0.024239156 0.29192802 0.2232941 0.21345992
0.011245461 -0.004803623 0.16209278 -0.14001977 -0.18295594 0.111222446 0.10172527 -0.14454463
0.075108975 0.100856446 -0.14550559 -0.086012736 0.07249975 0.06398227 0.27390894 0.074034706
0.26305825 0.09466942 -0.0067611136 0.18652458 0.15014951 -0.020328892 0.18347622 0.13176328
0.12509237 0.09763403 0.09849503 0.096438006 -0.21655132 0.012746761 -0.0059688226 -0.033986833
0.12522967 -0.2463748 -0.24374789 -0.07480682 -0.025470095 -0.21687466 -0.006688725 0.048709366
0.20207223 -0.0041112592 -0.004293765 0.21572834 -0.15848096 0.24600554 -0.0027730097 -0.16672729
-0.07026254 -0.10528403 -0.29676402 -0.23338576 0.0823526 0.16019619 0.22325666 0.16239935
0.012139876 -0.26064557 -0.078534245 -0.3623019 -0.26445618 0.1966093 -0.20139681 0.2997216
-0.0319424 0.15999612 0.15469213 0.069747455 0.0835364 0.24919063 -0.06001531 0.12710963
0.341161 0.059006568 -0.19957708 -0.33193454 -0.07056849 0.0062999777 -0.20591496 -0.3450274
-0.022557544 -0.046202775 -0.097581595 -0.11821257 -0.007651846 -0.1051659 0.13226315 0.030849924
-0.16150333 0.29558107 0.24546024 -0.027888209 0.14950845 0.039646264 0.10192368 -0.14917098
0.032158773 0.13221356 0.12175094 0.19902954 -0.093709745 0.06803358 -0.026550218 -0.06901294
-0.04383872 -0.021103812 0.1572046 -0.18137898 0.12594648 -0.11722772 0.15341808 0.056130525
0.10609954 -0.0784719 0.08561979 -0.007757515 -0.0012867538 0.20702067 0.12151574 0.20797032
0.02806099 0.22690898 0.012806463 -0.02672311 0.21803148 0.2187214 0.10738961 -0.03434804
0.116863325 -0.11141496 -0.06836351 0.17177051 -0.060853355 0.16568469 -0.1433585 0.14470303
-0.20063986 0.07020662 0.07556047 0.107763045 0.036733784 -0.20730639 0.09167608 0.07925861
-0.1944864 0.108094536 -0.114761226 0.03141946 -0.1439001 -0.063329466 0.01944872 -0.16018613
-0.14042781 0.007996387 0.15153044 -0.20109083 -0.19433053 0.08010334 -0.09836099 -0.16898638
-0.06319786 -0.18473065 -0.05171549 0.12351801 0.15465939 0.12710208 -0.08995367 -0.12962428
0.2217014 0.10687881 -0.0370177 -0.0954476 0.045664553 0.0022161251 -0.12435489 -0.13414185
-0.24019787 0.108667105 -0.07517558 -0.15635514 0.12956719 -0.0043790666 0.2431739 0.2883495
0.13175078 -0.024968276 0.14577848 0.19317542 0.12958898 -0.059875812 0.13882032 0.010333732
0.19092539 -0.11892245 -0.24836147 -0.1679655 0.12414832 -0.25779125 -0.0075073154 -0.22615035
-0.002040897 0.19207557 0.12984896 0.13334179 -0.08149188 0.15457758 0.19441666 0.12149861
-0.07848379 -0.16781263 -0.08893748 -0.17656866 -0.18137 -0.08652051 0.104562454 -0.059522558
0.12116813 -0.028849918 0.12785935 -0.03490668 0.11911007 -0.124838755 -0.09435335 -0.077833265
0.073323295 0.06404157 -0.09453448 -0.026860744 -0.08683838 -0.107885525 0.072254926 -0.021339294
-0.18635598 0.04008313 0.022278395 -0.11982457 0.26253736 0.18594933 0.2344681 0.060818356
00000000: a6f9 85bd c2fc e5bd 8a0d 4ebe 0844 abbd
00000010: 821d a33d 3711 d93d fb07 98bd e9ad 1fbe
00000020: 5d07 78bd 04c5 473e 6548 b7bd 1827 68bd
00000030: 3291 c63c 9777 953e 35a7 643e 3d95 5a3e
00000040: e23e 383c b667 9dbb a6fb 253e 5861 0fbe
00000050: cd58 3bbe 98c8 e33d 5755 d03d 8203 14be
00000060: bcd2 993d d38d ce3d 6bff 14be 7227 b0bd
00000070: c07a 943d 2309 833d cb3d 8c3e 829f 973d
00000080: 92af 863e 0ae2 c13d 558c ddbb 4d00 3f3e
00000090: cbc0 193e c788 a6bc 31e1 3b3e f4ec 063e
000000a0: 3718 003e 5af4 c73d c3b7 c93d 4a81 c53d
000000b0: a1bf 5dbe cad7 503c 1d96 c3bb c735 0bbd
000000c0: 353c 003e ad49 7cbe 0c99 79be 5134 99bd
000000d0: a9a6 d0bc 6414 5ebe 182d dbbb 7983 473d
000000e0: 06ec 4e3e beb7 86bb b6b2 8cbb e4e7 5c3e
000000f0: d548 22be e0e8 7b3e 62bb 35bb 8fba 2abe
00000100: cee5 8fbd 279f d7bd 74f1 97be adfc 6ebe
00000110: 7ba8 a83d 780a 243e 659d 643e 044c 263e
00000120: 55e6 463c 5673 85be 90d6 a0bd a27f b9be
00000130: cd66 87be f353 493e f73a 4ebe 1c75 993e
00000140: 09d6 02bd 06d6 233e 9d67 1e3e c1d7 8e3d
00000150: 2215 ab3d d42b 7f3e 9dd2 75bd 0729 023e
00000160: a8ac ae3e dfb0 713d ef5d 4cbe 53f3 a9be
00000170: 3686 90bd 0b70 ce3b 5fdb 52be 6ea7 b0be
00000180: 99ca b8bc 1f3f 3dbd dcd8 c7bd 6f19 f2bd
00000190: 56bc fabb 3861 d7bd fe6f 073e fbb8 fc3c
000001a0: 2161 25be 6756 973e ee59 7b3e d075 e4bc
000001b0: be18 193e 1f64 223d 5dbd d03d 47c0 18be
000001c0: ebb8 033d fe62 073e 8f58 f93d 66ce 4b3e
000001d0: e5ea bfbd 3155 8b3d d87f d9bc a856 8dbd
000001e0: 3b90 33bd e7e1 acbc 3efa 203e 69bb 39be
000001f0: 1df8 003e 1615 f0bd a119 1d3e 1fe9 653d
00000200: b74a d93d e0b5 a0bd 6e59 af3d c132 febb
00000210: 4ba8 a8ba 3afd 533e 3fdd f83d 2cf6 543e
00000220: 29e0 e53c d45a 683e 33d2 513c 6cea dabc
00000230: a543 5f3e 81f8 5f3e 15ef db3d 88b0 0cbd
00000240: 0a56 ef3d 872d e4bd 2b02 8cbd 9ce4 2f3e
00000250: 5e41 79bd 3fa9 293e 92cc 12be 082d 143e
00000260: 8974 4dbe 7dc8 8f3d 73bf 9a3d dfb2 dc3d
00000270: 2a76 163d 2048 54be abc0 bb3d 5752 a23d
00000280: 7127 47be ab60 dd3d ef07 ebbd b1b1 003d
00000290: 8c5a 13be e1b2 81bd ec52 9f3c d507 24be
000002a0: 4fcc 0fbe 4703 033c cc2a 1b3e c1ea 4dbe
000002b0: 95fe 46be 380d a43d 7d71 c9bd c40a 2dbe
000002c0: e16d 81bd 082a 3dbe 9fd3 53bd 03f7 fc3d
000002d0: 085f 1e3e 0c27 023e a139 b8bd 3abc 04be
000002e0: b105 633e 47e3 da3d df9f 17bd 087a c3bd
000002f0: c10a 3b3d 693c 113b c7ad febd 7b5c 09be
00000300: 6ef6 75be dc8c de3d a8f5 99bd 901b 20be
00000310: 43ad 043e 467e 8fbb 9402 793e 8ca2 933e
00000320: ade9 063e 458a ccbc f446 153e c7cf 453e
00000330: f9b2 043e 5740 75bd ea26 0e3e d04e 293c
00000340: f281 433e 9d8d f3bd 7852 7ebe 26ff 2bbe
00000350: 7941 fe3d 37fd 83be edff f5bb f593 67be
00000360: 92c0 05bb 75af 443e 20f7 043e c08a 083e
00000370: 37e5 a6bd 9649 1e3e 2915 473e 43d4 f83d
00000380: 1cbc a0bd 13d7 2bbe da24 b6bd 6ace 34be
00000390: 0fb9 39be aa31 b1bd d724 d63d edcd 73bd
000003a0: ff26 f83d aa56 ecbc 90ed 023e 4ffa 0ebd
000003b0: fbef f33d 76ab ffbd 543c c1bd 0c67 9fbd
000003c0: 862a 963d 3a28 833d 4b9b c1bd 100b dcbc
000003d0: 52d8 b1bd 16f3 dcbd 64fa 933d becf aebc
000003e0: 1ad4 3ebe 352e 243d 2e81 b63c 9666 f5bd
000003f0: 4c6b 863e 8069 3e3e 6818 703e ab1c 793d

0.bias f4 [16]
0.33819717 -0.036469016 -0.15012091 -0.31353325 -0.5675402 -0.078841105 -0.24129412 -0.1676282
-0.27005294 0.051001444 0.24004607 -0.4619698 0.10421011 -0.24384896 0.036985185 -0.49390522
00000000: 2e28 ad3e 8960 15bd 4cb9 19be 6e87 a0be
00000010: 514a 11bf 7277 a1bd ce15 77be baa6 2bbe
00000020: 6144 8abe e4e6 503d a3ce 753e 4e87 ecbe
00000030: 1c6c d53d 8bb3 79be c77d 173d 25e1 fcbe

3.weight f4 [16, 16, 3, 3]
0.05376167 0.023967722 -0.002104142 -0.038452566 -0.04482826 0.018797986 -0.06691409 0.0744818
0.019466516 -0.111105286 -0.09016523 -0.034648966 -0.13217834 -0.14690839 -0.10521555 -0.09103368
-0.11626977 -0.046600915 0.28606758 0.07356776 0.13705762 0.10254446 0.23825718 0.25837776
0.28104168 0.24347894 0.16140966 0.0504811 0.0025049818 0.10075247 -0.08264994 -0.09686156
-0.025809947 -0.15967225 -0.20309342 -0.180511 -0.064023964 -0.07270304 -0.07441569 0.045524523
0.06471849 0.009316099 0.0466895 0.02939964 -0.03491517 -0.075080246 -0.016549911 -0.020872544
-0.10253162 -0.11673496 0.010721371 -0.14024219 -0.11572324 -0.06613635 -0.103884384 -0.1195343
-0.10096371 -0.03539361 -0.009097279 -0.081127465 -0.026635595 -0.03927063 -0.1186256 0.04666212
0.11111484 0.046808504 0.10011411 0.039500326 0.0022408436 0.10126418 0.107543245 0.13705671
0.013705624 -0.036250964 0.023153018 -0.10444269 0.028733624 -0.03853393 -0.032434676 0.01606271
-0.047705475 -0.116215244 -0.07368502 -0.018248813 -0.16439934 -0.12028309 -0.044985972 -0.0314425
-0.072852746 -0.0444252 0.16212168 0.051379867 0.08042289 0.05960121 -0.0670349 0.13194348
0.0026498598 0.12936664 0.075846724 -0.08364448 -0.124746814 0.062039547 0.02520558 -0.06253969
0.061664406 0.047567956 -0.014896551 0.031393565 -0.023214048 0.11726435 0.10090653 0.11180533
0.009761607 0.026157657 0.013644302 0.022037601 0.07678809 -0.060476873 0.004904014 -0.07191532
-0.012424855 -0.035746224 -0.15037969 -0.14190637 -0.06321127 0.02965469 -0.12986909 -0.13134502
-0.17140044 -0.21350257 -0.14933093 -0.118770175 -0.2500123 -0.22859813 -0.1531589 -0.04142455
-0.047259457 -0.07369372 0.04082507 -0.042244557 -0.1400849 0.0041168993 -0.1244786 -0.16844383
-0.09458609 0.113255374 -0.007565522 0.016804943 0.26634154 -0.06867905 -0.027518194 0.015619425
0.08613309 -0.112521626 -0.22736791 -0.18147373 -0.1238537 -0.18207581 -0.23031518 -0.22912116
-0.16687524 -0.26381716 0.4029812 0.08453575 0.15694545 0.24115954 -0.49083796 0.18151897
-0.2532362 0.19237451 0.22300822 -0.28459752 -0.14422518 -0.2140195 -0.21864657 -0.041516334
-0.4554411 -0.040378775 0.16426416 -0.19190769 -0.248251 -0.241044 -0.29229626 -0.26625004
-0.31396496 -0.21501404 -0.111349694 -0.24594593 -0.28471777 -0.053294037 -0.04886187 -0.11946203
-0.098624505 -0.07101835 -0.07481011 -0.033006907 -0.005607937 -0.036596138 0.13508564 -0.11476836
0.014283275 0.041460585 -0.055510834 0.08319573 -0.1271689 0.04465672 -0.05545749 0.14665243
0.104004055 0.05182289 0.012198679 0.05052337 0.13082531 0.15863103 0.04635499 0.13449405
-0.05693247 0.011342521 0.013931871 -0.03432818 0.099067114 -0.06798225 0.082718045 0.03646847
0.06956335 0.056996003 0.08118648 0.1125524 0.034883242 0.10486316 0.08055238 0.19148189
0.22627586 0.06723287 0.07496451 -0.114131115 0.115616314 0.46732605 -0.05863135 0.26520386
0.087018274 -0.19209519 0.2827124 0.05955252 -0.052564286 -0.05949002 0.116023794 0.00037713378
-0.0049731424 0.007915131 0.05426083 -0.2151668 -0.17821366 -0.2108727 -0.28763494 -0.31090197
00000000: 3235 5c3d f557 c43c a5e5 09bb 7080 1dbd
00000010: d69d 37bd 3cfe 993c 410a 89bd ea89 983d
00000020: 3e78 9f3c 2b8b e3bd 8ca8 b8bd 13ec 0dbd
00000030: c259 07be 276f 16be 407b d7bd de6f babd
00000040: d81e eebd 9ae0 3ebd 7377 923e b2aa 963d
00000050: d558 0c3e d402 d23d b1f9 733e 174a 843e
00000060: b2e4 8f3e 8b52 793e 9348 253e 45c5 4e3d
00000070: 9f2a 243b 5057 ce3d 5f44 a9bd 5b5f c6bd
00000080: 626f d3bc 1f81 23be b9f7 4fbe e0d7 38be
00000090: ff1e 83bd 55e5 94bd 4167 98bd ec77 3a3d
000000a0: 218b 843d 8da2 183c 7d3d 3f3d 84d7 f03c
000000b0: 3603 0fbd acc3 99bd ae93 87bc e6fc aabc
000000c0: 19fc d1bd bd12 efbd b0a8 2f3c a69b 0fbe
000000d0: 4e00 edbd 7f72 87bd 56c1 d4bd 66ce f4bd
000000e0: 10c6 cebd e4f8 10bd c10c 15bc 2826 a6bd
000000f0: e432 dabc 3dda 20bd fbf1 f2bd c720 3f3d
00000100: 2d90 e33d 46ba 3f3d a008 cd3d 18cb 213d
00000110: 1edb 123b 9863 cf3d a23f dc3d 9858 0c3e
00000120: 8e8d 603c e47b 14bd 66ab bd3c 0de6 d5bd
00000130: c762 eb3c c1d5 1dbd 39da 04bd f295 833c
00000140: d166 43bd 4202 eebd 2ce8 96bd 897e 95bc
00000150: 4d58 28be fb56 f6bd 3643 38bd dac9 00bd
00000160: d233 95bd 33f7 35bd 3a03 263e b273 523d
00000170: c2b4 a43d 6620 743d 9849 89bd 311c 073e
00000180: 45a9 2d3b b078 043e 8755 9b3d cc4d abbd
00000190: 427b ffbd 2e1d 7e3d ef7b ce3c cf14 80bd
000001a0: d193 7c3d 9ed6 423d aa10 74bc 8a96 003d
000001b0: 632b bebc 4b28 f03d 15a8 ce3d 31fa e43d
000001c0: 26ef 1f3c 9548 d63c 5a8c 5f3c 3388 b43c
000001d0: 1343 9d3d 99b6 77bd dab1 a03b 5748 93bd
000001e0: 9e91 4bbc a26a 12bd 22fd 19be e74f 11be
000001f0: e974 81bd 64ee f23c 67fc 04be 4f7f 06be
00000200: 9983 2fbe 6ba0 5abe 35ea 18be c73d f3bd
00000210: 9d01 80be a115 6abe b0d5 1cbe caac 29bd
00000220: 2293 41bd bcec 96bd 3038 273d a108 2dbd
00000230: 6b72 0fbe 0ee7 863b a3ee febd 8a7c 2cbe
00000240: 5ab6 c1bd 6ff2 e73d 33e8 f7bb 85aa 893c
00000250: eb5d 883e 9aa7 8cbd d66d e1bc 9ee8 7f3c
00000260: 8c66 b03d bd71 e6bd 22d3 68be 40d4 39be
00000270: 02a7 fdbd 1572 3abe bed7 6bbe bd9e 6abe
00000280: 58e1 2abe 0b13 87be 8d53 ce3e 1421 ad3d
00000290: 4fb6 203e 87f2 763e 1d4f fbbe 1ce0 393e
000002a0: 2da8 81be d3fd 443e 445c 643e c4b6 91be
000002b0: c4af 13be ee27 5bbe e3e4 5fbe 080d 2abd
000002c0: 932f e9be 3764 25bd dd34 283e 7383 44be
000002d0: 8335 7ebe 3dd4 76be dba7 95be ed51 88be
000002e0: 04c0 a0be a42c 5cbe 4f0b e4bd 40d9 7bbe
000002f0: 87c6 91be d94a 5abd 6223 48bd 82a8 f4bd
00000300: a5fb c9bd 1272 91bd 0b36 99bd 4032 07bd
00000310: c9c2 b7bb d5e5 15bd e453 0a3e ad0b ebbd
00000320: 6604 6a3c 93d2 293d 545f 63bd 8662 aa3d
00000330: 9038 02be f7e9 363d 6527 63bd 0e2c 163e
00000340: 1400 d53d 3d44 543d f8dc 473c 98f1 4e3d
00000350: 12f7 053e 2c70 223e bbde 3d3d cfb8 093e
00000360: 0632 69bd fbd5 393c 8142 643c b59b 0cbd
00000370: b3e3 ca3d 473a 8bbd 1468 a93d f65f 153d
00000380: 3b77 8e3d a474 693d 1945 a63d df81 e63d
00000390: bbe1 0e3d 7fc2 d63d a5f8 a43d d413 443e
000003a0: dcb4 673e 63b1 893d fe86 993d 93bd e9bd
000003b0: 3fc8 ec3d 5c45 ef3e 6d27 70bd cdc8 873e
000003c0: a336 b23d 9ab4 44be aebf 903e 58ed 733d
000003d0: a64d 57bd cfab 73bd e29d ed3d 0aba c539
000003e0: bef5 a2bb 77ae 013c 9b40 5e3d b054 5cbe
000003f0: a47d 36be 03ef 57be e344 93be 8b2e 9fbe

3.bias f4 [16]
-0.21126877 -0.117481686 -0.041969765 0.124010906 0.10948931 -0.051919594 -0.28986144 -0.027078763
-0.38489762 -0.10839767 -0.014928384 -0.06908505 -0.014735201 0.29289934 0.0027488188 0.011814645
00000000: d756 58be 3d9a f0bd 7de8 2bbd 6ef9 fd3d
00000010: ee3b e03d a4a9 54bd b868 94be 48d4 ddbc
00000020: 4d11 c5be 99ff ddbd 2e96 74bc 767c 8dbd
00000030: ea6b 71bc e7f6 953e 8725 343b 3692 413c

6.weight f4 [16, 16, 3, 3]
-0.21490504 -0.19571118 -0.2105746 -0.06731047 -0.21891372 -0.19151069 -0.24995294 -0.19629458
-0.16640751 -0.23698336 -0.07607649 -0.18988517 -0.06680265 -0.0053064465 0.06676267 -0.123042464
-0.050358243 -0.13017698 0.16868491 0.11004328 0.08081961 0.09540731 0.18978506 0.07444689
-0.03308358 -0.057166014 -0.043205317 -0.05875967 0.010334256 -0.031412683 0.050137285 0.028612923
0.020923357 -0.0099459095 -0.039345853 -0.1357156 0.12223569 0.14015916 0.06764856 0.2143951
0.17626797 0.076546445 0.10918962 0.06550743 0.08052083 0.091365345 0.0657103 0.031378236
0.11633979 0.19260474 0.02661297 0.1401367 0.10281392 0.112079404 0.012394682 0.0016374718
-0.046343513 -0.0816331 -0.029285396 -0.049024686 -0.0734622 0.023554001 -0.021400189 -0.33279306
-0.19924681 -0.19533676 -0.23258969 -0.22961667 -0.21006984 -0.25760508 -0.12517707 -0.15843058
-0.24766323 -0.34746587 -0.38917744 -0.22715874 -0.33144623 -0.2995241 -0.34866726 -0.33730957
-0.44399476 0.09602275 0.13375038 0.06410545 0.082504205 0.050319303 0.074492514 0.009595713
0.021611638 -0.02256376 0.1174958 0.0391948 -0.042948913 0.012978223 -0.028931048 0.023870349
0.027881399 0.039072208 0.09442245 0.09879853 -0.010501047 0.14888921 0.0551371 -0.0037761286
0.003843155 0.004172872 0.009927198 -0.024312545 0.027904067 -0.025944354 -0.035047084 -0.0027967037
0.020146113 -0.03851181 -0.006406276 -0.13659 -0.13230309 0.09646793 0.085695155 -0.062890954
0.08086109 0.1887988 0.07408099 0.08106356 0.10278463 0.114363916 0.11853541 0.21595363
0.3146148 0.025285093 0.14712203 0.11486415 0.15320191 0.19980852 0.11814955 -0.0685625
0.01622464 -0.09660856 0.058972657 -0.028088799 0.0626468 -0.05927416 -0.056566153 -0.010785708
0.07352251 0.1940158 0.19710863 0.08277084 0.13681331 0.32441404 0.034233913 0.19993614
0.25028822 0.17601334 0.16868639 0.30916485 -0.0007197668 0.058681015 0.09142789 0.032224953
0.11103732 0.19499099 -0.11253517 -0.10004863 -0.0064834445 -0.022128966 -0.03786729 0.00743771
-0.06387163 0.02560628 -0.104237676 -0.24107954 -0.02758926 0.07392607 -0.18916525 -0.049941517
-0.10618905 -0.33948457 -0.066313624 -0.06508431 -0.18249214 -0.088917986 -0.13335559 -0.19820283
-0.15528761 -0.20526697 -0.17308001 -0.1795358 -0.1566426 -0.249214 -0.20321423 -0.04753168
-0.28973237 -0.13086614 -0.17024407 -0.2745569 -0.28593135 -0.18101366 0.04014759 -0.06302201
-0.21897896 -0.13822131 -0.2425733 -0.18147868 -0.10429961 -0.1756299 -0.11715842 0.044347618
-0.056447838 -0.053733528 0.0668974 -0.03310423 -0.024866842 0.04278001 -0.055226613 -0.060058385
-0.13412257 -0.26640686 -0.24735071 -0.037845377 -0.13101685 -0.26215923 -0.049235962 -0.15537438
-0.18646792 0.0036492744 0.09798557 0.101543166 -0.036298215 0.036093924 0.028446712 -0.08720664
0.030920535 0.07415212 0.07483689 -0.042041324 -0.08203169 -0.0251357 -0.05080567 0.06716071
-0.07757754 0.081963055 -0.02183149 -0.054042444 0.057317726 0.014568087 -0.08842522 -0.0762017
-0.046577264 -0.043095436 0.04513346 -0.102070294 0.07571648 0.10745709 0.20405929 0.010944478
00000000: 1110 5cbe 8368 48be dea0 57be 12da 89bd
00000010: eb2a 60be 611b 44be aaf3 7fbe 7201 49be
00000020: bb66 2abe c4ab 72be fecd 9bbd 4271 42be
00000030: d4cf 88bd b3e1 adbb deba 883d b0fd fbbd
00000040: 7244 4ebd 1d4d 05be bdbb 2c3e 5f5e e13d
00000050: c084 a53d e864 c33d 0457 423e 9c77 983d
00000060: a682 07bd e926 6abd 0ff8 30bd fbad 70bd
00000070: 0351 293c 96aa 00bd c15c 4d3d a665 ea3c
00000080: 7667 ab3c 2bf4 22bc 1e29 21bd 08f9 0abe
00000090: b556 fa3d e285 0f3e 548b 8a3d 648a 5b3e
000000a0: 977f 343e 62c4 9c3d cf9e df3d c228 863d
000000b0: 1be8 a43d c11d bb3d 1f93 863d 7786 003d
000000c0: 8e43 ee3d 2d3a 453e 7103 da3c ff7f 0f3e
000000d0: 1b90 d23d e389 e53d 1013 4b3c 70a0 d63a
000000e0: b2d2 3dbd 412f a7bd ede7 efbc 1cce 48bd
000000f0: 5a73 96bd 52f4 c03c 734f afbc da63 aabe
00000100: 5b07 4cbe 5c06 48be fe2b 6ebe a220 6bbe
00000110: 8c1c 57be d0e4 83be 6b2e 00be a03b 22be
00000120: 6e9b 7dbe 0ce7 b1be 4442 c7be 4d9c 68be
00000130: 52b3 a9be 395b 99be 8484 b2be d7b3 acbe
00000140: 4853 e3be 93a7 c43d dcf5 083e b849 833d
00000150: f7f7 a83d 9d1b 4e3d 888f 983d 5637 1d3c
00000160: e40a b13c a2d7 b8bc a3a1 f03d ba8a 203d
00000170: 33eb 2fbd 9da2 543c ce00 edbc c08b c33c
00000180: 8867 e43c 2e0a 203d 8f60 c13d e256 ca3d
00000190: 950c 2cbc 6a76 183e 71d7 613d ed78 77bb
000001a0: 71dd 7b3b 96bc 883b b0a5 223c 1a2b c7bc
000001b0: 1297 e43c 4189 d4bc 888d 0fbd e748 37bb
000001c0: 7609 a53c 8fbe 1dbd bdeb d1bb 40de 0bbe
000001d0: 767a 07be fa90 c53d f180 af3d f9cc 80bd
000001e0: 809a a53d 7954 413e c6b7 973d a704 a63d
000001f0: c080 d23d a137 ea3d b1c2 f23d f322 5d3e
00000200: 3115 a13e af22 cf3c 28a7 163e e53d eb3d
00000210: f6e0 1c3e 9b9a 4c3e 64f8 f13d 7f6a 8cbd
00000220: 89e9 843c b5da c5bd 508d 713d 7b1a e6bc
00000230: f74c 803d 76c9 72bd e9b1 67bd 8ab6 30bc
00000240: f892 963d 14ac 463e d8d6 493e c283 a93d
00000250: ca18 0c3e 9919 a63e dc38 0c3d 0fbc 4c3e
00000260: c725 803e d73c 343e 20bc 2c3e db4a 9e3e
00000270: bbae 3cba 815b 703d 8c3e bb3d 50fe 033d
00000280: 8967 e33d b8ab 473e d778 e6bd 4ce6 ccbd
00000290: 1373 d4bb ce47 b5bc bb1a 1bbd 09b8 f33b
000002a0: 21cf 82bd 43c4 d13c 907a d5bd 8edd 76be
000002b0: df02 e2bc 8d66 973d 89b4 41be 7a8f 4cbd
000002c0: a579 d9bd ecd0 adbe 70cf 87bd ec4a 85bd
000002d0: 38df 3abe a21a b6bd 5e8e 08be aff5 4abe
000002e0: b703 1fbe 8131 52be e33b 31be 3cd8 37be
000002f0: eb66 20be f431 7fbe 6417 50be 94b0 42bd
00000300: cd57 94be c601 06be 7654 2ebe b992 8cbe
00000310: 9865 92be a55b 39be cd71 243d af11 81bd
00000320: 053c 60be e389 0dbe 2365 78be 8cd5 39be
00000330: 099b d5bd 53d8 33be c1f0 efbd d9a5 353d
00000340: d935 67bd b017 5cbd 8101 893d 4d98 07bd
00000350: 8cb5 cbbc 173a 2f3d 4d35 62bd c8ff 75bd
00000360: 6d57 09be 7b66 88be 8149 7dbe c103 1bbd
00000370: 4829 06be bc39 86be a6ab 49bd 761a 1fbe
00000380: 72f1 3ebe aa28 6f3b a9ac c83d ddf5 cf3d
00000390: 70ad 14bd 39d7 133d 1409 e93c 6599 b2bd
000003a0: 104d fd3c 11dd 973d 1544 993d 8633 2cbd
000003b0: 3b00 a8bd 62e9 cdbc 9b19 50bd 8e8b 893d
000003c0: f9e0 9ebd 3fdc a73d f4d7 b2bc 9c5b 5dbd
000003d0: fec5 6a3d fcae 6e3c 4818 b5bd a30f 9cbd
000003e0: cdc7 3ebd d784 30bd dddd 383d 3b0a d1bd
000003f0: 3e11 9b3d 7612 dc3d ebf4 503e 7850 333c

6.bias f4 [16]
0.24960327 -0.00062137493 -0.08440095 -0.0030353554 0.00012338818 -0.057196155 -0.17855635 0.21193753
-0.0094628595 0.03666927 -0.13934168 -0.017218266 -0.27223215 0.29234666 0.08480885 -0.13207489
00000000: 0098 7f3e c4e3 22ba 68da acbd d0ec 46bb
00000010: c361 0139 8446 6abd 7ad7 36be 2706 593e
00000020: 1c0a 1bbc 8432 163d 96af 0ebe 520d 8dbc
00000030: 0362 8bbe 76ae 953e 43b0 ad3d a43e 07be

9.weight f4 [16, 16, 3, 3]
-0.09568823 -0.017585644 -0.09790932 -0.010891766 0.011254637 -0.18743041 -0.024159001 -0.10577453
-0.17559884 0.13150682 0.13638191 0.052921534 0.22028291 0.2761287 0.056394856 0.09069387
0.05020394 0.1339361 -0.14405856 -0.11823495 -0.09884032 -0.07079807 0.020266602 -0.021904174
-0.03922109 0.05256936 -0.0794266 0.13616441 0.17203362 0.16911387 0.067224205 0.1418161
0.20562941 0.020355355 0.1040682 0.14717276 0.08056643 0.19648339 0.07147471 0.19109629
0.22506228 0.16991983 0.106021486 0.07432236 0.091188736 -0.007928748 0.07839159 0.07094921
0.035331033 0.030777968 -0.027160183 0.0053820554 -0.0059384126 0.087862186 0.15949866 0.14151463
0.1880345 0.15022162 0.05928294 0.08086363 0.07078244 0.07167323 0.09582821 -0.026007045
-0.048340935 -0.10265776 0.1703317 -0.018853132 -0.17285542 0.0520129 -0.019144278 -0.17691427
0.052395612 0.07066432 -0.018922023 0.08979578 -0.07605591 -0.07949171 0.10739614 0.14890811
-0.03660132 0.10788889 -0.024804331 0.06166553 0.055479497 -0.06608026 0.024077417 0.09122626
-0.032091442 0.0023255397 0.036996007 -0.07875319 -0.0042582615 0.07901715 0.10314637 0.07301253
-0.03373691 0.0076132785 -0.052287884 -0.13315314 -0.13590504 -0.16368401 -0.17734091 -0.1860503
-0.15187228 -0.115591325 -0.10470159 -0.19018053 0.25305656 -0.17716403 -0.17715853 0.23803918
-0.2503223 -0.21841416 0.14964887 -0.4883135 -0.2401614 -0.013278792 -0.085161865 -0.021276005
-0.06929222 -0.08167296 -0.15815641 0.0063318172 0.0005110991 -0.118973784 0.07564407 0.042162325
0.022603428 0.075842455 0.13296926 -0.044178084 0.101772934 -0.023128679 0.054287836 0.091988996
0.008855186 0.0273026 0.10743381 0.08763879 0.034891978 0.091685556 0.06722634 0.090127446
-0.09538731 -0.040332425 0.020215131 0.09601633 0.11150732 0.10856586 0.03715486 -0.11452752
-0.047243632 -0.01991828 -0.050934393 0.058965176 0.13762406 0.070207 -0.016070245 0.091248505
-0.0012144443 0.009556874 -0.09432448 -0.13299651 -0.074092135 0.11224818 0.07051821 0.035418786
0.08798536 0.012537342 0.017017202 0.074765824 0.01778874 -0.059654612 0.0141538195 0.026733011
-0.0719938 0.07724237 0.031897753 -0.016178563 -0.10556698 -0.0725095 -0.17266904 -0.12852693
-0.18587835 -0.14511517 -0.18089326 -0.120713666 -0.08364298 0.001227785 0.04574398 0.061446257
-0.050781496 0.09893375 0.0822853 0.0818873 0.026825808 0.03914679 0.20280349 0.19535182
0.04546866 0.22328809 0.2451356 0.15255414 0.06039449 0.08018694 0.058412556 -0.047124412
-0.13212046 0.014952007 -1.5433681e-05 -0.019959455 0.09568653 -0.021512914 -0.020330314 -0.12905164
-0.15131438 -0.1414936 -0.043253932 0.05256283 0.054671902 0.12049278 0.058779858 -0.07031718
0.03304402 -0.05114732 0.010690203 0.064854115 0.049267177 0.13549699 0.111320876 0.12958665
0.12098589 0.051985353 -0.11745048 -0.123623274 -0.028382719 0.17225534 0.14733166 0.14352591
0.12749428 0.13383654 -0.0895211 0.026819402 0.111832656 0.11299696 0.04880145 0.10314863
0.008245142 0.13829352 -0.0031824107 0.046531662 -0.12455738 -0.27092445 0.18036231 -0.25485128
00000000: 31f8 c3bd c50f 90bc ae84 c8bd 6173 32bc
00000010: 5e65 383c c2ed 3fbe 19e9 c5bc 51a0 d8bd
00000020: 2fd0 33be b9a9 063e b3a7 0b3e 40c4 583d
00000030: d891 613e be60 8d3e 4bfe 663d b5bd b93d
00000040: a6a2 4d3d 8c26 093e 1684 13be 2a25 f2bd
00000050: cb6c cabd 94fe 90bd 2506 a63c 6270 b3bc
00000060: 4ba6 20bd f852 573d 6aaa a2bd af6e 0b3e
00000070: 9529 303e 302c 2d3e d8ac 893d 3d38 113e
00000080: 8490 523e 46c0 a63c b521 d53d 75b4 163e
00000090: 0300 a53d f132 493e 5561 923d bfae 433e
000000a0: ba76 663e 77ff 2d3e cb21 d93d 5236 983d
000000b0: 29c1 ba3d 94e7 01bc c58b a03d d24d 913d
000000c0: 46b7 103d 1422 fc3c 087f debc f45b b03b
000000d0: 0497 c2bb 17f1 b33d 9e53 233e 36e9 103e
000000e0: 1e8c 403e b2d3 193e abd2 723d d59b a53d
000000f0: 62f6 903d 6ac9 923d 9541 c43d ba0c d5bc
00000100: 2501 46bd 3b3e d2bd 6f6b 2e3e e271 9abc
00000110: 0301 31be 7b0b 553d 76d4 9cbc 0429 35be
00000120: c89c 563d 74b8 903d 5c02 9bbc dae6 b73d
00000130: 33c3 9bbd 8dcc a2bd 82f2 db3d 5e7b 183e
00000140: 44eb 15bd daf4 dc3d 7432 cbbc ff94 7c3d
00000150: 783e 633d 1655 87bd 013e c53c d5d4 ba3d
00000160: 5172 03bd 1568 183b 2089 173d 5a49 a1bd
00000170: e388 8bbb bed3 a13d 673e d33d 9887 953d
00000180: b72f 0abd cf78 f93b d22b 56bd 4c59 08be
00000190: b12a 0bbe c89c 27be db98 35be f883 3ebe
000001a0: 6884 1bbe 25bb ecbd ca6d d6bd afbe 42be
000001b0: a190 813e 7d6a 35be 0c69 35be 8bc0 733e
000001c0: 3f2a 80be f6a7 5fbe 8e3d 193e 3a04 fabe
000001d0: dfec 75be 4a8f 59bc 5869 aebd 044b aebc
000001e0: 14e9 8dbd 2744 a7bd c1f3 21be 227b cf3b
000001f0: 48fb 053a 87a8 f3bd 47eb 9a3d 67b2 2c3d
00000200: d32a b93c 4a53 9b3d 1829 083e 14f4 34bd
00000210: 546e d03d 5b78 bdbc ec5c 5e3d ba64 bc3d
00000220: 5815 113c b4a9 df3c 4206 dc3d f77b b33d
00000230: e4ea 0e3d a3c5 bb3d f7ad 893d bd94 b83d
00000240: 6c5a c3bd 9d33 25bd 349a a53c 36a4 c43d
00000250: f35d e43d c757 de3d b22f 183d 688d eabd
00000260: 8a82 41bd a92b a3bc 95a0 50bd 7885 713d
00000270: 52ed 0c3e b0c8 8f3d bfa5 83bc 7fe0 ba3d
00000280: fd2d 9fba 6f94 1c3c 312d c1bd 3d30 08be
00000290: 9ebd 97bd 60e2 e53d da6b 903d 4a13 113d
000002a0: ab31 b43d 6c69 4d3c a967 8b3c d31e 993d
000002b0: b1b9 913c 6558 74bd 6ce5 673c 30ff da3c
000002c0: 7c71 93bd 3f31 9e3d 38a7 023d e888 84bc
000002d0: 8033 d8bd dc7f 94bd 27d0 30be 909c 03be
000002e0: e556 3ebe 1299 14be 153c 39be ba38 f7bd
000002f0: 034d abbd a1ed a03a 0a5e 3b3d 12af 7b3d
00000300: 4200 50bd c79d ca3d 3285 a83d 87b4 a73d
00000310: ccc1 db3c 6258 203d b8ab 4f3e 4f0a 483e
00000320: 583d 3a3d a2a5 643e d404 7b3e 2737 1c3e
00000330: 3660 773d 0d39 a43d 0142 6f3d 8705 41bd
00000340: 964a 07be 43f9 743c 9477 81b7 0382 a3bc
00000350: 4df7 c33d da3b b0bc c28b a6bc 1d26 04be
00000360: 28f2 1abe b3e3 10be 092b 31bd 1f4c 573d
00000370: a5ef 5f3d ebc4 f63d 26c3 703d 7402 90bd
00000380: 2b59 073d da7f 51bd f625 2f3c 3cd2 843d
00000390: 61cc 493d b9bf 0a3e 33fc e33d 5db2 043e
000003a0: 73c7 f73d 98ee 543d e189 f0bd 332e fdbd
000003b0: e082 e8bc b463 303e 1cde 163e 75f8 123e
000003c0: dc8d 023e 720c 093e d756 b7bd 5db4 db3c
000003d0: 8508 e53d f36a e73d 07e4 473d 973f d33d
000003e0: a216 073c d19c 0d3e fe8f 50bb fc97 3e3d
000003f0: f117 ffbd 9cb6 8abe e6b0 383e de7b 82be

9.bias f4 [16]
-0.06434431 -0.22489011 0.14443256 0.09244111 -0.17606264 0.38152114 0.07747713 0.07302238
-0.042625032 0.087381825 -0.1569571 -0.079002954 0.073313974 0.12869966 0.100677624 0.14350392
00000000: f3c6 83bd 9849 66be 21e6 133e c451 bd3d
00000010: c449 34be bd56 c33e 54ac 9e3d c28c 953d
00000020: 9697 2ebd 3ef5 b23d 5db9 20be 4dcc a1bd
00000030: a325 963d d8c9 033e 1230 ce3d b1f2 123e

12.weight f4 [16, 16, 3, 3]
-0.056462556 -0.028131058 0.12118991 -0.044845793 -0.019486425 0.054356515 -0.19137609 -0.17047176
-0.10250456 0.037434302 0.0039976486 0.03259489 0.0922439 0.027589696 0.06363544 0.0047636754
-0.009288511 -0.018241588 0.076971166 0.040012322 -0.042444125 -0.055252593 -0.07462882 -0.026871167
0.0003397718 0.0106733395 0.04645466 -0.04014459 -0.05973074 0.046099287 0.012911661 0.016654067
0.042799234 0.0014171774 -0.11839022 0.03858302 0.004222564 0.09141104 0.094696395 0.005556897
-0.060156513 -0.087729774 0.22130783 0.20911875 -0.02457932 0.1256012 0.10869163 0.13915084
0.27661377 0.25085557 0.17863978 0.3599572 0.17462046 0.2099247 0.032999236 -0.0060924687
0.052206714 0.07455912 0.059650667 0.022923661 -0.08179313 -0.046868473 0.053261284 -0.0039090537
0.07665322 0.08559121 -0.020492645 0.015919875 -0.033406287 0.018325709 -0.04649764 -0.06639358
-0.10367287 0.039787766 0.067733325 -0.016927198 0.05038621 0.1315266 -0.04002489 -0.10307644
0.046768684 0.073019855 -0.04138027 0.07567584 -0.050042987 0.09152141 -0.025326079 -0.11586913
0.014241437 0.0287853 -0.078382894 -0.054856658 -0.1000187 -0.00170758 -0.041400746 -0.056226052
-0.013433732 0.008482775 -0.07661239 -0.008202024 0.055541303 0.09242711 -0.031038752 -0.088216856
0.047096703 -0.0896784 -0.22450167 -0.13904451 -0.02331329 0.036637355 0.04772109 -0.05201123
0.06137868 0.07854663 -0.08462934 -0.037014123 -0.0070708296 0.006056759 -0.056213606 0.04729037
0.07342277 0.08143957 0.03897934 -0.023449184 0.01654381 -0.0115295965 -0.09604074 -0.08361572
-0.031694088 -0.009151833 0.009295063 0.08979066 -0.055562828 -0.16745661 -0.20443135 0.069007054
0.1263624 0.058290005 0.14189252 0.1574364 0.22682825 -0.1003124 -0.016996127 -0.0020442593
-0.02197246 0.019170513 -0.13830248 -0.08242253 -0.15629123 -0.07059271 -0.0383061 -0.07187973
-0.058854073 -0.0964216 -0.09758781 0.025597852 0.039956775 -0.035169408 0.02330266 0.025079925
-0.024636049 0.032429595 0.06941036 -0.031298153 -0.072725795 0.01907914 -0.08726216 0.07124894
0.026421513 -0.04601691 -0.05904744 -0.05294622 -0.07645947 -0.09315459 0.07982313 -0.057800163
0.022315051 -0.06918076 0.0075066183 0.006636664 -0.035336018 -0.06398787 -0.051204342 0.05519862
-0.039927572 0.056498915 0.049643293 -0.0768369 0.011466382 -0.15287936 -0.1085779 -0.108996786
-0.03807232 -0.08341919 -0.10003092 -0.03401364 -0.047145054 -0.04694363 0.06307951 -0.0077678896
-0.045400295 0.0026456104 -0.11463856 -0.08285805 0.041622616 0.041922033 -0.068460956 0.07556001
-0.02429528 -0.04003225 -0.08194122 -0.06767461 -0.021732582 -0.053526014 -0.04427034 0.022836579
0.079660185 0.0098648295 -0.031062864 0.07814766 -0.0036168322 -0.0059286878 -0.048149884 0.057762332
0.024490558 -0.04724098 0.058163755 0.033363968 -0.053004503 -0.08996359 -0.0474598 -0.0019844454
-0.060630623 0.022156175 0.037193872 -0.05918364 0.0630499 -0.022040855 -0.0020588278 -0.036005136
-0.042167127 -0.005469727 -0.042699408 -0.02571698 0.0152284 0.013299615 -0.07978669 0.032359555
-0.06433588 -0.07666162 0.04374724 -0.11009529 -0.005286853 0.02061473 -0.012114037 -0.08945897
00000000: 4845 67bd 1b73 e6bc 6a32 f83d 39b0 37bd
00000010: ffa1 9fbc f0a4 5e3d 18f8 43be 2690 2ebe
00000020: e9ed d1bd b654 193d b5fe 823b 3882 053d
00000030: 5fea bc3d c903 e23c 4c53 823d 9b18 9c3b
00000040: d72e 18bc 626f 95bc 0fa3 9d3d f6e3 233d
00000050: e4d9 2dbd 8b50 62bd ffd6 98bd ec20 dcbc
00000060: 6623 b239 3bdf 2e3c 3e47 3e3d a76e 24bd
00000070: 38a8 74bd 9bd2 3c3d 6e8b 533c 1c6e 883c
00000080: 404e 2f3d 95c0 b93a 9276 f2bd 3b09 1e3d
00000090: 6f5d 8a3b b635 bb3d 2ff0 c13d a116 b63b
000000a0: ad66 76bd abab b3bd 859e 623e 3a23 563e
000000b0: 925a c9bc 9a9d 003e b899 de3d 8f7d 0e3e
000000c0: 52a0 8d3e 2470 803e 59ed 363e 4f4c b83e
000000d0: b5cf 323e 80f6 563e 352a 073d 55a3 c7bb
000000e0: b5d6 553d 74b2 983d 4254 743d 67ca bb3c
000000f0: 2883 a7bd 28f9 3fbd 8128 5a3d 8517 80bb
00000100: 5dfc 9c3d 724a af3d 31e0 a7bc 666a 823c
00000110: 08d5 08bd cc1f 963c 4f74 3ebd 5bf9 87bd
00000120: 7152 d4bd 7ff8 223d c5b7 8a3d e8aa 8abc
00000130: c561 4e3d e9ae 063e 24f1 23bd be19 d3bd
00000140: 8590 3f3d 6f8b 953d 5c7e 29bd effb 9a3d
00000150: e0f9 4cbd 946f bb3d a378 cfbc cb4c edbd
00000160: eb54 693c 26cf eb3c 3687 a0bd 60b1 60bd
00000170: 9bd6 ccbd e1d0 dfba d493 29bd 4a4d 66bd
00000180: 2819 5cbc 56fb 0a3c f5e6 9cbd c861 06bc
00000190: 477f 633d 6d4a bd3d fb44 febc 0aab b4bd
000001a0: 79e8 403d 4fa9 b7bd c4e3 65be af61 0ebe
000001b0: 83fb bebc 0d11 163d 3177 433d ba09 55bd
000001c0: 3668 7b3d 0edd a03d 2652 adbd 1f9c 17bd
000001d0: 6bb2 e7bb c777 c63b 3d40 66bd 8cb3 413d
000001e0: ad5e 963d cac9 a63d cda8 1f3d 8118 c0bc
000001f0: e286 873c a2e6 3cbc 02b1 c4bd b83e abbd
00000200: a9d1 01bd 92f1 15bc 524a 183c 2ae4 b73d
00000210: d995 63bd bf79 2bbe 7456 51be 9253 8d3d
00000220: 2565 013e 80c1 6e3d 464c 113e 0237 213e
00000230: aa45 683e 9670 cdbd 763b 8bbc fbf8 05bb
00000240: 97ff b3bc 7b0b 9d3c 2a9f 0dbe 25cd a8bd
00000250: cf0a 20be e992 90bd dbe6 1cbd ae35 93bd
00000260: f810 71bd b078 c5bd 1edc c7bd 96b2 d13c
00000270: b7a9 233d cc0d 10bd 38e5 be3c 6a74 cd3c
00000280: 8ad1 c9bc e5d4 043d 0527 8e3d 7e32 00bd
00000290: 43f1 94bd db4b 9c3c 81b6 b2bd f7ea 913d
000002a0: ee71 d83c 3a7c 3cbd badb 71bd 23de 58bd
000002b0: c896 9cbd d5c7 bebd 4f7a a33d ddbf 6cbd
000002c0: 0ece b63c a4ae 8dbd 14fa f53b 5f78 d93b
000002d0: 80bc 10bd 130c 83bd a5bb 51bd f317 623d
000002e0: 188b 23bd 686b 673d c456 4b3d aa5c 9dbd
000002f0: 7edd 3b3c 688c 1cbe 175e debd b539 dfbd
00000300: b9f1 1bbd aed7 aabd 03dd ccbd e351 0bbd
00000310: 2c1b 41bd f747 40bd d52f 813d c889 febb
00000320: a9f5 39bd fa61 2d3b 9fc7 eabd 7bb1 a9bd
00000330: 7a7c 2a3d 70b6 2b3d 4235 8cbd 35bf 9a3d
00000340: e506 c7bc dbf8 23bd ccd0 a7bd fc98 8abd
00000350: 8708 b2bc 183e 5bbd d154 35bd c713 bb3c
00000360: e124 a33d 18a0 213c 8c77 febc e10b a03d
00000370: 6008 6dbb 7045 c2bb d038 45bd 3298 6c3d
00000380: 6ca0 c83c c27f 41bd 1e3d 6e3d a8a8 083d
00000390: 401b 59bd d53e b8bd 3565 42bd 780d 02bb
000003a0: d157 78bd de80 b53c 9a58 183d 8b6a 72bd
000003b0: 4e20 813d 068f b4bc 66ed 06bb 1f7a 13bd
000003c0: 70b7 2cbd 653b b3bb 93e5 2ebd 6bac d2bc
000003d0: 8a80 793c a1e6 593c 3467 a3bd 748b 043d
000003e0: 88c2 83bd c400 9dbd 4e30 333d a479 e1bd
000003f0: 563d adbb 39e0 a83c f479 46bc 4436 b7bd

12.bias f4 [16]
0.48491544 -0.03613301 0.10967002 0.024739796 -0.082505524 -0.017383758 0.04248815 0.360988
-0.19591153 0.09084054 0.24017677 0.16005425 0.057194255 -0.19213413 0.4386777 -0.21709895
00000000: d646 f83e 3500 14bd ad9a e03d 1dab ca3c
00000010: a8f8 a8bd 6268 8ebc 0e08 2e3d 6bd3 b83e
00000020: 089d 48be 9b0a ba3d e6f0 753e 43e5 233e
00000030: 8644 6a3d cfbe 44be 5d9a e03e 304f 5ebe

15.weight f4 [16, 16, 3, 3]
0.02753397 0.019326651 -0.13813192 -0.15532759 -0.02760632 -0.08352583 0.03554944 -0.0986684
-0.025045156 0.1072828 -0.01261331 -0.077797994 -0.054788243 -0.017533753 -0.05327847 -0.050258473
-0.04535598 -0.02029311 -0.11482411 -0.037982065 -0.06815804 -0.062948294 0.102083996 -0.11158483
-0.007227163 0.0656656 -0.07488756 0.0839539 0.059224956 -0.031782165 0.0753597 0.0033931285
-0.040706813 -0.065852344 -0.11297722 0.03842456 -0.19226399 -0.016846474 -0.13639496 0.09257729
0.03892556 -0.084984906 -0.008117272 0.01472653 0.07034386 0.09479863 -0.030742798 -0.014230388
-0.0804091 0.055061467 -0.038127385 -0.14282386 -0.1140853 -0.03188163 0.03640148 0.035451464
0.073332466 -0.03432909 -0.052182466 -0.05478724 0.055328738 -0.09648895 0.04309667 -0.060740497
-0.020348482 0.014218539 0.11068341 0.0073145935 -0.14289376 0.04559421 0.047386363 -0.06901555
-0.008415725 -0.060829066 -0.01147905 0.10182099 -0.00918293 -0.011954278 -0.05955251 0.066890985
0.043111272 0.02549564 -0.5104463 -0.02993315 0.052106276 -0.3430242 -0.09394888 0.017413039
0.006774969 -0.027726255 -0.03974242 -0.08752468 -0.092760324 -0.08165402 -0.03753072 0.037942313
-0.22397597 -0.15451726 -0.058798444 -0.13082027 -0.10738741 -0.0720045 0.058705863 -0.120842114
-0.11060155 0.01409099 -0.07132079 0.05847726 0.014977305 0.0799765 0.0057254834 0.10873671
0.12709261 -0.14029445 0.006472274 -0.09336227 0.062244438 -0.020128023 0.08893103 0.0016608462
-0.060328785 0.11423898 -0.03131178 -0.10005558 -0.103230126 -0.022924028 0.12788397 -0.0018882597
-0.03934851 0.05074494 -0.09140969 -0.062018722 -0.099973686 -0.06240301 -0.051869683 0.10462553
0.11268682 -0.062408715 0.14200738 0.13832657 -0.08004767 -0.21115588 0.023787124 0.03624355
0.04259891 0.042022657 0.08775037 0.06252747 0.016565112 -0.0010083094 0.030593645 0.115674555
-0.065479964 -0.04006236 -0.034017634 -0.0069969 0.017445184 -0.032879435 -0.07680614 0.06236186
0.07907895 -0.0074393065 0.02598118 0.054146733 0.14234272 -0.015556876 0.12217194 0.22953661
0.28051206 0.13740486 0.11384878 0.11968418 -0.0019182444 0.07577626 0.2400788 0.13936462
0.24189778 -0.004830181 -0.039467562 0.026225328 0.17493397 0.073299974 0.39976314 -0.02932443
0.05911113 0.16246514 -0.14582163 -0.05122868 0.067593016 0.19358075 -0.12331049 0.10626036
0.045018036 -0.057713423 -0.030161431 0.030167514 0.07057391 -0.049167097 0.040453374 0.30534244
0.00029974274 -0.023364348 -0.030658944 0.10815217 -0.060002923 0.20930675 0.00054207357 0.13468365
0.10704187 0.14093992 -0.015305111 0.2475724 0.0026384208 0.17772771 0.32384917 -0.08805722
-0.08080751 0.077720545 0.023384975 0.06413668 0.118917674 0.024761952 -0.018920057 0.0091191055
0.04833383 0.13559571 -0.099191576 0.19067003 -0.22794004 0.057596404 -0.29358172 -0.028362546
0.12317786 -0.049743455 -0.04712363 0.041607175 -0.052949086 0.018916514 0.02687192 0.05160308
0.05926662 -0.097872004 -0.0760112 0.20441858 -0.012397781 0.041210894 -0.03866579 -0.056822967
-0.0037211173 0.03237264 0.050647818 0.0406521 0.1817988 -0.108808406 -0.15965687 -0.084940046
00000000: ec8e e13c ed52 9e3c 7472 0dbe 320e 1fbe
00000010: a626 e2bc 970f abbd 4a9c 113d a812 cabd
00000020: 802b cdbc 16b7 db3d 0ea8 4ebc 8e54 9fbd
00000030: a369 60bd f2a2 8fbc 863a 5abd d4db 4dbd
00000040: 31c7 39bd bc3d a6bc e728 ebbd 1593 1bbd
00000050: 7196 8bbd 09eb 80bd 6a11 d13d 9686 e4bd
00000060: d6d1 ecbb b07b 863d a65e 99bd 06f0 ab3d
00000070: de95 723d 042e 02bd 3056 9a3d 405f 5e3b
00000080: 30bc 26bd 98dd 86bd 9a60 e7bd 1263 1d3d
00000090: dae0 44be 9e01 8abc 1fab 0bbe 2a99 bd3d
000000a0: 6870 1f3d 910c aebd 4efe 04bc 8b47 713c
000000b0: 7110 903d c925 c23d 52d8 fbbc 9326 69bc
000000c0: 87ad a4bd 2288 613d 762b 1cbd 6b40 12be
000000d0: 8ea5 e9bd 5096 02bd b819 153d 8e35 113d
000000e0: 552f 963d a99c 0cbd 48bd 55bd 9668 60bd
000000f0: 63a0 623d 009c c5bd 2286 303d 07cb 78bd
00000100: dcb1 a6bc e0f4 683c fcad e23d 42af ef3b
00000110: be52 12be ffc0 3a3d 3418 423d 0658 8dbd
00000120: 1ce2 09bc e627 79bd a012 3cbc 8687 d03d
00000130: 0074 16bc e0db 43bc 55ed 73bd 24fe 883d
00000140: 7295 303d 3bdc d03c 9cac 02bf 5e36 f5bc
00000150: 646d 553d dea0 afbe 4568 c0bd caa5 8e3c
00000160: 8f00 de3b 2c22 e3bc f3c8 22bd 2440 b3bd
00000170: 20f9 bdbd 393a a7bd d0b9 19bd 6669 1b3d
00000180: f559 65be c639 1ebe a3d6 70bd c0f5 05be
00000190: eeed dbbd 1877 93bd 8f75 703d 127c f7bd
000001a0: 1183 e2bd e5dd 663c a210 92bd da85 6f3d
000001b0: 5f63 753c b8ca a33d d69c bb3b 5ab1 de3d
000001c0: 9124 023e 59a9 0fbe 5f15 d43b b834 bfbd
000001d0: 06f4 7e3d 86e3 a4bc 7921 b63d c0b0 d93a
000001e0: 511b 77bd 20f6 e93d c840 00bd f1e9 ccbd
000001f0: 516a d3bd 2ccb bbbc 04f4 023e 7b7f f7ba
00000200: e72b 21bd edd9 4f3d 0135 bbbd 5807 7ebd
00000210: 01bf ccbd 4c9a 7fbd 4e75 54bd e945 d63d
00000220: 59c8 e63d 48a0 7fbd 626a 113e 7ba5 0d3e
00000230: 08f0 a3bd 3f39 58be 37dd c23c 1e74 143d
00000240: 327c 2e3d f31f 2c3d 77b6 b33d 670e 803d
00000250: 8fb3 873c 4029 84ba 869f fa3c c8e6 ec3d
00000260: 5c1a 86bd 6e18 24bd 1356 0bbd 4046 e5bb
00000270: 34e9 8e3c 96ac 06bd 8a4c 9dbd 266f 7f3d
00000280: 25f4 a13d 6dc5 f3bb 7cd6 d43c f7c8 5d3d
00000290: 4ac2 113e 44e2 7ebc 4835 fa3d a50b 6b3e
000002a0: 479f 8f3e dcb3 0c3e 8d29 e93d fb1c f53d
000002b0: 9a6d fbba 9530 9b3d 38d7 753e 99b5 0e3e
000002c0: 0db4 773e 7f46 9ebb bda8 21bd 80d6 d63c
000002d0: e421 333e 4c1e 963d c1ad cc3e c939 f0bc
000002e0: 831e 723d 435d 263e 4452 15be 2ad5 51bd
000002f0: 356e 8a3d 083a 463e 368a fcbd 089f d93d
00000300: d564 383d e964 6cbd 1b15 f7bc dd21 f73c
00000310: 0e89 903d 7063 49bd 70b2 253d d855 9c3e
00000320: ca26 9d39 9766 bfbc 7728 fbbc e37e dd3d
00000330: a0c5 75bd 8254 563e f119 0e3a 83ea 093e
00000340: c538 db3d 8e52 103e 4ac2 7abc 9f83 7d3e
00000350: 5be9 2c3b 41fe 353e 8fcf a53e 5857 b4bd
00000360: 687e a5bd f32b 9f3d d991 bf3c 175a 833d
00000370: 1c8b f33d 94d9 ca3c 3cfe 9abc 4d68 153c
00000380: b2f9 453d 9ad9 0a3e f424 cbbd 013f 433e
00000390: 1d69 69be 35ea 6b3d 5850 96be 9258 e8bc
000003a0: ad44 fc3d cbbf 4bbd b504 41bd 496c 2a3d
000003b0: 24e1 58bd cef6 9a3c 8022 dc3c c05d 533d
000003c0: 8ec1 723d 1e71 c8bd c3ab 9bbd 1b53 513e
000003d0: 1020 4bbc c1cc 283d 0560 1ebd 33bf 68bd
000003e0: fddd 73bb 2c99 043d 1674 4f3d d182 263d
000003f0: 7729 3a3e f1d6 debd 177d 23be 0cf5 adbd

15.bias f4 [16]
-0.32944283 0.07218781 0.41032743 0.13158126 0.23261377 0.002468804 -0.056474634 0.33681393
-0.11477937 0.23113514 0.15928456 -0.10277477 0.21890815 -0.17566974 -0.023576355 -0.13387729
00000000: bbac a8be 34d7 933d 7016 d23e 3dbd 063e
00000010: 4e32 6e3e a8cb 213b f251 67bd e072 ac3e
00000020: 7211 ebbd b1ae 6c3e 7e1b 233e 947b d2bd
00000030: 7529 603e c5e2 33be 3323 c1bc 2117 09be

19.weight f4 [4, 16]
0.0005395444 0.12953012 -0.124404766 0.15784977 0.2213542 0.18435268 -0.20939273 0.040194813
0.1467001 -0.16793114 -0.5741352 -0.12874337 0.03238506 -0.013667129 -0.23193896 -0.071104646
0.1280294 0.086652644 -0.27130732 0.15804927 -0.074177295 0.046933096 -0.0018128753 -0.12748237
0.11285644 -0.30547532 -0.9860769 -0.5780343 -0.011671025 0.10443855 0.10028058 0.07447866
-0.18953979 -0.5692723 -0.00916543 -0.14048654 0.011528452 0.17198339 -0.01970188 -0.0056245243
0.16716616 -0.18592216 0.21615434 0.36940387 0.041950475 -0.46732906 0.1368663 0.013413767
-0.324228 -0.17619671 0.045187958 0.09915041 -0.06651463 0.16876286 0.064391926 0.21613573
-0.09716467 0.20902471 0.08740455 -0.1486853 0.1866455 -0.22664128 -0.123401396 0.13857579
00000000: 3670 0d3a 8ba3 043e edc7 febd 5fa3 213e
00000010: adaa 623e f3c6 3c3e 0c6b 56be 51a3 243d
00000020: 8d38 163e 24f6 2bbe 86fa 12bf 4dd5 03be
00000030: 32a6 043d 18ec 5fbc 6881 6dbe 509f 91bd
00000040: 241a 033e f176 b13d cbe8 8abe abd7 213e
00000050: 44ea 97bd eb3c 403d 009e edba bd8a 02be
00000060: 4721 e73d 4367 9cbe 896f 7cbf 0efa 13bf
00000070: d437 3fbc e1e3 d53d e85f cd3d 4588 983d
00000080: b816 42be d4bb 11bf 9a2a 16bc b4db 0fbe
00000090: d5e1 3c3c 6a1c 303e d665 a1bc ee4d b8bb
000000a0: 9b2d 2b3e 6162 3ebe 9057 5d3e 8122 bd3e
000000b0: 43d4 2b3d c145 efbe ae26 0c3e 6bc5 5b3c
000000c0: 3601 a6be e96c 34be 0217 393d 5f0f cb3d
000000d0: d338 88bd 2cd0 2c3e eadf 833d af52 5d3e
000000e0: 45fe c6bd 930a 563e 2801 b33d f640 18be
000000f0: ff1f 3f3e a714 68be dfb9 fcbd d0e6 0d3e

19.bias f4 [4]
0.36831713 -0.2952369 -0.24896434 0.25839132
00000000: 1094 bc3e 4a29 97be 82f0 7ebe de4b 843e
